pose2base_robot_transformer_best.pt (torch, 439468 bytes, 43 tensors)

pos_embedding f4 [1, 9, 64]
000000 63 e8 0b 3e 0b ce 57 3e 2b 72 37 be ca 72 71 bb
       0.13662867 0.21074693 -0.17914645 -0.0036842101
000010 52 8f 6e 3e 34 74 64 be c9 a4 6f be b1 57 4b be
       0.2329686 -0.22309953 -0.23402704 -0.1985767
000020 96 3b b6 be 14 e2 87 bd 48 e4 ab bd 9f 8b 81 bc
       -0.35592335 -0.06634918 -0.083931506 -0.015813647
000030 54 9c a5 3e c9 24 b5 be 72 75 dd bd e7 39 7b 3e
       0.3234583 -0.35379627 -0.108134165 0.24533807
000040 43 1a 58 be fd ca 86 3e 07 4b 7d be 04 9a de be
       -0.21103768 0.26326743 -0.24735652 -0.4347688
000050 fd ca 26 be aa e9 22 be 0b 2a 3a ba ab 51 4f 3e
       -0.16288371 -0.15909448 -0.0007101602 0.20245998
000060 68 fd aa 3c 82 29 85 3e af ea 3b bd 8d 94 67 3e
       0.020872787 0.2600823 -0.04587811 0.22615261
000070 b1 bc 67 be 43 e2 04 be 0b c5 c8 3d a9 89 a9 3e
       -0.22630574 -0.12976937 0.09803208 0.3311284
000080 d9 9f ae be 24 39 87 3e c1 3b 92 3e 99 b1 2b 3e
       -0.3410633 0.26410782 0.28561214 0.16766967
000090 e1 e6 93 3e 0a 53 a8 3e 4c da d8 bc 7f 4b c8 bd
       0.28887084 0.32875854 -0.02647128 -0.09780025
0000a0 ff 79 ca be 02 e7 97 3e cb d8 65 3e 54 23 ec 3b
       -0.395462 0.29668432 0.22445981 0.00720636
0000b0 d0 7b 6a be 31 b4 6b 3e aa 59 19 be c0 20 8c be
       -0.22898793 0.23017956 -0.1497561 -0.27368736
0000c0 1f 33 cd be ec fd 3e 3d 60 4f a9 3d 96 eb d2 3e
       -0.40078065 0.046628878 0.08267093 0.41195363
0000d0 87 b0 04 bd 80 7b 95 3e 00 86 6c bd 68 33 89 3e
       -0.032394912 0.29195786 -0.05774498 0.26797032
0000e0 ac f2 99 be 09 bb d1 be 63 64 a7 3e 70 79 97 3e
       -0.30067956 -0.4096301 0.32693776 0.29584837
0000f0 dd c1 98 ba fd 53 92 be 98 04 1f 3c a6 b2 27 3e
       -0.0011654455 -0.28579703 0.009705685 0.16376743
000100 ae 1a ea bc 55 60 13 bd 93 9a 21 3e c2 95 50 bc
       -0.028577175 -0.03598054 0.15781622 -0.012731018
000110 7f 4c 43 bd ec e0 03 3e 38 98 4c 3e 00 0d 9d 3e
       -0.047680374 0.1287877 0.19979942 0.3067398
000120 26 c0 a3 3e fa d4 41 3e f3 18 31 3e b9 fd 95 bc
       0.31982535 0.189289 0.17294674 -0.018309461
000130 bc 42 c0 3d a4 8f 4c 3e ad a4 42 be d9 5e 09 bf
       0.093877286 0.1997667 -0.19008131 -0.5366035
000140 b5 e6 56 3e c9 70 b6 be 38 80 86 bd cc 1c de 3e
       0.20986445 -0.35632923 -0.065674245 0.43381345
000150 d9 55 c8 3d 08 d8 43 3e 21 6a 27 bd a3 82 f3 bd
       0.09781999 0.19125378 -0.040872697 -0.11890151
000160 bb 6b 25 3d bd ed 61 be 3d 03 3a be cc fb 0c be
       0.040385943 -0.22063346 -0.18165298 -0.13767928
000170 07 a4 87 bb df dd e0 bd 4d 8e 0a 3d 26 d6 06 be
       -0.0041394266 -0.109798186 0.033827115 -0.13167629
000180 6d 62 c9 3e 1e 54 cb be a7 2e d5 3c b9 d7 7a bc
       0.39332905 -0.39712614 0.026023222 -0.015310221
000190 1d 31 8f be 75 f1 c1 be c5 ed db bc c9 c9 95 bc
       -0.27967158 -0.3787953 -0.026846776 -0.018284695
0001a0 7e b2 c3 3e 00 b7 f4 bd 66 34 19 3e 5c c8 5f 3d
       0.38222116 -0.11948967 0.14961395 0.054634437
0001b0 ad 87 33 3e ba 08 83 be bc c1 6a bd 02 66 4e bd
       0.17532225 -0.25592595 -0.057313666 -0.05039025
0001c0 d0 cb 35 3e c4 ac 4e be c4 91 89 3d cb 65 64 be
       0.1775353 -0.20183092 0.06717256 -0.22304456
0001d0 bd 95 e3 3b d5 a8 73 bd 41 cc a6 3e d1 93 8b be
       0.0069453404 -0.059487183 0.32577708 -0.27261212
0001e0 17 3c 12 3e 5f 09 25 be d2 00 ca bd d9 78 9f be
       0.14280735 -0.16116856 -0.09863438 -0.31146887
0001f0 4f 28 89 bd e4 75 ad 3e 2f 2f d9 3e f1 f8 05 be
       -0.066971414 0.33879006 0.4241881 -0.13083245
000200 ea 0f 89 bc e2 44 25 be bb 08 d8 3c d9 f6 9f 3e
       -0.016731221 -0.16139558 0.02637135 0.31243017
000210 39 69 a8 bc 5f 79 48 3e 73 c8 01 3e eb c5 35 be
       -0.020557987 0.1957755 0.12674122 -0.17751281
000220 70 aa 8f bc 4b 97 2f 3e e3 de 3d be f7 3f 16 3e
       -0.017537326 0.17147557 -0.18542056 0.14672838
000230 dd 02 c8 be 05 94 af bb 3f 36 37 3e 2c c7 37 be
       -0.39064685 -0.0053582215 0.17891787 -0.17947072
000240 94 00 9c 3e 26 ed d3 bb be ce 08 3e 36 8f f5 3d
       0.3046919 -0.0064674793 0.13360116 0.11990206
000250 4c 92 1c bd d7 aa 52 3d 41 c0 b5 bd 0d 48 2a be
       -0.038225457 0.051432457 -0.0887456 -0.16629048
000260 23 45 10 bd 73 88 dd be 0d 07 80 3e e5 06 13 be
       -0.035222184 -0.43268165 0.2500538 -0.14358099
000270 54 23 1e bd 64 45 c7 bd 04 35 ef 3c a8 ae 5b be
       -0.03860791 -0.09730032 0.029200085 -0.21453345
000280 94 35 ce 3d ff 2d 38 3d a7 10 9d be b4 de 02 3d
       0.10068813 0.04496574 -0.30676767 0.031950668
000290 f2 82 1c 3e 5a cb 49 be 76 73 9c 3e ad 09 7b 3d
       0.15284327 -0.19706479 0.3055684 0.061288524
0002a0 02 9c 31 bd 93 5e 09 bd cc a2 4e 3e 30 f5 2c be
       -0.04336167 -0.03353746 0.2017929 -0.16890407
0002b0 e8 43 81 3e 1c fe c4 be 8f 9d c2 bd aa 4f 63 3d
       0.2524712 -0.3847512 -0.09502708 0.055495895
0002c0 59 07 03 3f 6a 7d 58 3d 59 5d 73 bd bb 10 c5 be
       0.51183087 0.05285398 -0.059415195 -0.38489327
0002d0 c5 61 a9 bd 1b 07 0d be 4c f1 ad 3d 6c 7a c2 bc
       -0.08270601 -0.13772242 0.08493289 -0.023740016
0002e0 04 e6 38 3e e7 ec ae 3b af 38 05 be d3 c0 06 3e
       0.18056494 0.0053382996 -0.13009904 0.13159494
0002f0 6b a5 69 3e d5 bb e0 3d 7b 96 df bc 18 d2 79 3e
       0.22817008 0.10973326 -0.027293434 0.2439655
000300 83 cf bf 3c af f5 99 bd 50 f5 02 3a b0 5d 10 be
       0.023414379 -0.075175636 0.0004995661 -0.14098239
000310 d7 0a 4a bd 05 11 07 be b1 e0 43 3d e2 21 95 3d
       -0.049326744 -0.13190086 0.047821704 0.07281853
000320 55 e1 ca bd 16 16 a1 be 9a 47 00 be 5a 18 03 bd
       -0.0990626 -0.31462163 -0.12527314 -0.032005645
000330 69 3c ab bd e1 a6 3a 3d 31 2b f8 3d 8b 40 61 3e
       -0.08361132 0.045569304 0.12117613 0.21997277
000340 bb b0 30 bd c7 54 41 3e 11 33 24 3d 34 ae 1d be
       -0.043137293 0.18879996 0.040087763 -0.15398484
000350 50 e6 f8 3d 6b af 28 be 3f 26 dc 3d fb fa 18 bc
       0.121533036 -0.16473167 0.10749482 -0.009337182
000360 52 54 cb bd f2 a7 2e 3d 56 67 ef 3d fb d6 1d 3e
       -0.09928192 0.042640634 0.11689632 0.1541404
000370 d6 80 d6 3d 14 47 25 3e b0 8c b0 bd 5f 65 f5 bb
       0.10473792 0.16140395 -0.08620584 -0.007488891
000380 cb 1d b9 bd c0 63 68 3e 49 a0 89 bd 13 a8 7f bd
       -0.09038886 0.22694302 -0.06720025 -0.062416147
000390 6f 35 42 bc f5 0e 4e 3e 7f 35 34 3d 0f 8b 64 3e
       -0.01185356 0.20122893 0.04399633 0.22318672
0003a0 91 9d 1b be ec 30 8c 3a 87 e9 de bc 89 53 32 3d
       -0.15196826 0.0010695732 -0.027210964 0.043536697
0003b0 62 d8 81 be 1c 98 27 3e 4a ea 84 bd 7a 4c 56 3d
       -0.253604 0.16366619 -0.064899996 0.052319027
0003c0 11 de 49 bd 3c 8f f1 3d 03 f8 8a 3d 69 15 92 3d
       -0.049284045 0.11794898 0.06785586 0.0713299
0003d0 85 55 99 bd d2 db 16 be 89 c3 85 be e6 e2 ec bc
       -0.07487015 -0.14732292 -0.26125744 -0.028916787
0003e0 68 27 36 3c 15 be d6 3d 1b ec 27 bc b0 13 a8 3d
       0.011117794 0.10485474 -0.010249163 0.0820688
0003f0 16 44 20 3c 90 b9 8b 3d 8e cc 54 bd 89 d5 95 bc
       0.009781858 0.068225026 -0.05195289 -0.018290298

input_proj.weight f4 [64, 1]
000000 81 fb 46 3f e2 62 5b 3f 93 8f 67 be 3a 76 6c 3f
       0.77727515 0.8569776 -0.22613363 0.923679
000010 15 70 5a be 3b 71 4a 3e 2c 3c 08 bf 9d 9f 11 3f
       -0.21331818 0.19769756 -0.53216815 0.56884176
000020 cd 97 67 3f 5c 41 34 bf aa af 5a 3f 8b e2 47 3e
       0.90466005 -0.7041223 0.8542429 0.19520013
000030 a3 0f 3e 3f d4 ac f9 3d 73 f1 f6 3e 46 7e 19 be
       0.7424261 0.121911675 0.48231086 -0.14989576
000040 51 90 43 3f 0c 30 16 3e 5a 7a ee be 33 35 68 3e
       0.76392084 0.14666766 -0.46577722 0.22676544
000050 1a 0e 01 bf 5e d9 9e bd ca 67 cd be 50 f1 2b 3f
       -0.5041214 -0.07756303 -0.40118247 0.6716509
000060 9b 2f 4a bf 65 0b e6 be 89 5d 95 be b3 54 1b bf
       -0.7897889 -0.44930568 -0.29172924 -0.60676116
000070 2c 3d c6 3d 55 5c 7d bf ed 0e 6c 3f 84 ca 55 bf
       0.09679636 -0.9896901 0.92210275 -0.8351214
000080 6c a2 44 3f f1 ae 1b 3e 37 30 ab be 96 af 2a 3f
       0.76810336 0.15203454 -0.33435223 0.6667417
000090 92 d8 2c 3e 04 39 51 3f 43 87 e0 3d 53 c1 a3 be
       0.1687949 0.81727624 0.10963299 -0.31983432
0000a0 1f 67 8e 3e 7a 2e 47 be 1c 77 d7 3e 34 fc 62 3f
       0.2781305 -0.19451323 0.4208306 0.8866608
0000b0 3e 1a 18 3f 7d ae d8 be df 5f 14 3f 1a 7c 41 3e
       0.5941504 -0.42320624 0.5795879 0.18894997
0000c0 f0 e6 01 3f 6e 7c 26 bf 09 dc 82 bf ab 1f b7 be
       0.5074301 -0.65033615 -1.0223399 -0.35766348
0000d0 ff 79 42 bf 11 d8 53 3f 59 87 98 3e 28 c1 da 3e
       -0.759674 0.82751566 0.29790762 0.42725492
0000e0 05 e4 97 3e 18 ca 99 bc 92 9d 4b 3f da 30 32 bf
       0.29666153 -0.018773124 0.7953731 -0.6960579
0000f0 45 65 a9 3d 55 f5 35 bf 01 79 88 3e 3a 37 a6 be
       0.08271269 -0.7107747 0.2665482 -0.3246401

input_proj.bias f4 [64]
000000 1e e2 9f 3e 2f 2d 50 be c0 c2 48 3f 49 f4 10 bf
       0.312272 -0.20329736 0.78422165 -0.5662275
000010 79 40 13 bf ee 96 03 bf 3b 33 54 3f de 2e 99 3e
       -0.5752025 -0.51402175 0.8289067 0.2991857
000020 cf df 6b 3f 80 4b 4b bf 2d ff 7a bf 12 68 40 bf
       0.9213838 -0.7941208 -0.9804562 -0.751588
000030 d2 26 26 bf 47 71 c3 3e ae 68 ac 3e ba c5 45 3f
       -0.64902985 0.3817236 0.33673614 0.7725483
000040 c9 1b 05 bf 46 74 25 bf 41 5a fd 3e 0e e0 d2 be
       -0.5199552 -0.64630544 0.4948292 -0.41186565
000050 ab ca 0e 3f f5 44 8f be 1a 98 09 3f 26 94 3e bf
       0.55777997 -0.27982298 0.53747714 -0.74444807
000060 e1 f3 02 bf 71 e1 88 3e c7 8e 1f 3e 9b f5 83 be
       -0.5115338 0.26734498 0.15581809 -0.2577332
000070 cc 2e 0e 3f 3a 6d 23 3f 37 ce 2a bf cb 07 00 bf
       0.55540156 0.6383854 -0.6672091 -0.5001189
000080 39 2f 66 3f 79 26 ab be 1b 05 b1 be f6 4c 6c bf
       0.89915806 -0.3342779 -0.34574208 -0.92304933
000090 bb 22 0d bf aa 55 72 3e d1 b4 14 be 43 b8 2d bf
       -0.5513112 0.23665491 -0.14522101 -0.67859286
0000a0 1c c4 5d 3c be 6c 1f bf b2 ca 49 bf 04 cc 02 bf
       0.013535526 -0.622753 -0.78824914 -0.51092553
0000b0 3b 59 4f bf 82 c8 1a bf 25 98 73 3f f9 2a 30 3e
       -0.8099553 -0.604622 0.9515403 0.17203893
0000c0 82 c4 92 3e b3 8d 5c bf 22 e6 28 bf eb 68 ab be
       0.2866555 -0.86153716 -0.65976155 -0.33478484
0000d0 f8 fa e0 3d fe e9 5a bf e1 9d da be 51 8f 12 bf
       0.109853685 -0.85513294 -0.42698577 -0.57249933
0000e0 2f a5 38 bc 0f 1e bd be e0 f0 8b bd 77 94 2f bf
       -0.011269852 -0.36936995 -0.06833053 -0.68585914
0000f0 b8 21 2a bf 1e 19 11 bf c2 f2 ac be 76 5e 3c bf
       -0.664577 -0.5667895 -0.3377896 -0.73581636

encoder.layers.0.self_attn.in_proj_weight f4 [192, 64]
000000 4c 78 17 3c a0 32 96 3c d9 76 88 bd 10 64 ba 3d
       0.00924499 0.018334687 -0.066632934 0.09101117
000010 da 4f 89 3d 8d 26 28 bc 3d 79 dc 3c e6 42 3e be
       0.067046836 -0.0102630975 0.02691328 -0.18580207
000020 f7 42 c2 bc 6b d8 a5 3d ec 6d 36 be 2d a0 52 bd
       -0.023713572 0.08097919 -0.1781537 -0.051422287
000030 f1 07 e2 3c cd 5b 42 bd 8d 7f 9f 3b ff 39 23 3d
       0.027591677 -0.04745083 0.0048675 0.03985023
000040 5e 40 82 bd 1d 12 2a 3e 9b 5a b4 b7 57 15 1e be
       -0.06359933 0.16608472 -2.1499864e-05 -0.15437828
000050 d9 9a b4 3d 53 a6 05 be 6f b0 e3 bb d4 40 e3 bb
       0.08818597 -0.13051729 -0.0069485228 -0.0069352183
000060 a3 f8 83 bc 92 9a b4 3d 84 cf 40 bd 79 9f 97 bb
       -0.01610977 0.088185444 -0.047072902 -0.004627165
000070 bf c9 ab bd 57 47 23 3e 14 17 a7 3c 87 9d a9 bd
       -0.083880894 0.15945183 0.020396747 -0.08281999
000080 a8 76 0c 3d c4 7e 60 3e 85 61 be 3d bc cc 99 3d
       0.034292847 0.21923357 0.09295944 0.07509753
000090 96 d5 dc bc 8f e9 16 3e 7d 23 bb 3e ce de 75 bc
       -0.026957314 0.14737533 0.36550513 -0.015006734
0000a0 ef 88 73 bd 16 9c 42 3e a4 af 82 3d 1d 7b 68 be
       -0.059456762 0.19004855 0.06381157 -0.22703214
0000b0 00 3d 93 bd 5a ac 19 3e ea b1 96 bd c5 5b d2 bd
       -0.07189369 0.15007153 -0.07358153 -0.1027141
0000c0 78 57 08 be 51 9c 77 bd 0b 54 7d bd f6 16 98 3d
       -0.13314617 -0.06045181 -0.061847728 0.074262545
0000d0 58 4e ba 3d 07 05 17 3e 33 7d 7f 3c a9 9c a3 3c
       0.09096974 0.14748012 0.015593815 0.019972162
0000e0 a9 56 b0 3d e8 e5 f1 3d dd bd 29 be 0b 1e 0f 3e
       0.08610279 0.11811429 -0.16576333 0.13976304
0000f0 e7 9b 62 bd 01 d0 e1 3d 76 cf 7c be f8 a3 99 3d
       -0.05532446 0.11026002 -0.24688515 0.07501978
000100 ca 12 11 3c 99 d3 ac 3d 97 bf 21 3d da 72 01 be
       0.008854577 0.084387966 0.039489355 -0.12641469
000110 55 13 4e 3d 93 11 93 3d ce 09 84 bd 44 0f ab bd
       0.050311405 0.071810864 -0.064471826 -0.08352521
000120 57 ba c1 bd c0 9e 99 bd aa 36 01 bd b0 24 c3 bb
       -0.0945937 -0.07500982 -0.031546272 -0.005955301
000130 2b 33 9f ba 66 8c b1 bc 5f bc c8 3d b4 2e 59 3c
       -0.0012145987 -0.021673393 0.09801554 0.013255764
000140 25 c0 dc bd 0e 45 6f bd db b1 a3 bd 66 c4 3f bd
       -0.10778836 -0.058415465 -0.079929076 -0.04681816
000150 29 0d 06 be e1 4e 88 3c 3d a1 df bd 84 17 35 3d
       -0.13090958 0.016639175 -0.10919426 0.04421188
000160 69 ad cf 3d a9 73 d0 bd 4e cd a5 bd 7a e1 f8 bd
       0.10140497 -0.101783104 -0.080957994 -0.12152381
000170 a2 ef 56 3d 05 87 2c 3d 0e 3d b2 bd 55 13 c1 3d
       0.052474625 0.042120952 -0.087030515 0.094275154
000180 3d 2b 98 3d a4 cd 54 be 2a cf 62 3c 13 01 a0 bd
       0.07430122 -0.2078157 0.013843337 -0.07812705
000190 40 d5 30 bd e0 50 a3 3d 48 53 9d bd dd 5b ec bd
       -0.04317212 0.0797441 -0.076819 -0.11540959
0001a0 ff e4 fc 3d 14 26 19 be 59 8d 83 bd 17 e3 67 3d
       0.12348365 -0.14955932 -0.06423444 0.056613054
0001b0 46 20 00 3e 7b 47 12 3e 78 ed d7 bc 65 3f 7a 3d
       0.12512311 0.1428508 -0.026358351 0.061095614
0001c0 c3 4d 00 be b3 77 19 bd 7e bd 40 bd 93 1f 11 3d
       -0.12529664 -0.03746767 -0.047055714 0.035430502
0001d0 fd ae b3 bd d3 6e 77 3c 49 bb b7 3d bf 83 c8 3d
       -0.08773611 0.015102106 0.08971269 0.097907536
0001e0 cc 11 00 bd 57 a6 d9 3d ae d3 0f be 27 e7 65 bd
       -0.031266972 0.1062743 -0.14045593 -0.056128647
0001f0 19 cf 25 3d 90 6c 41 3d 1e ae e1 3d b8 86 e7 bd
       0.040480707 0.047222674 0.11019538 -0.113049924
000200 3e c7 e1 3d 11 01 1c be 5d 38 97 bd 01 d2 17 bd
       0.110243306 -0.15234782 -0.07383797 -0.03706551
000210 87 41 4d be c6 a3 2a be 64 89 dd bd 75 9b 20 3e
       -0.20044528 -0.16664037 -0.10817221 0.15684302
000220 1f a6 72 3d 75 93 7e bd 18 e6 ec bc a6 e6 29 be
       0.059240457 -0.062152345 -0.028918311 -0.16591892
000230 80 24 35 be 02 b0 65 bd e3 71 f7 bd 72 a2 f6 3d
       -0.17689705 -0.056076057 -0.12082269 0.12042703
000240 ea 96 a1 bd a4 5c 84 bd e4 42 c3 bd 63 c8 21 3d
       -0.07890113 -0.06462982 -0.09534243 0.039497744
000250 60 18 17 3a 16 89 cd bd 6e 8b e9 3d 91 12 d0 3d
       0.0005763825 -0.10035913 0.11403547 0.10159791
000260 c9 d8 07 be 04 09 bf 3d 4f 07 ca bb e9 8d af bc
       -0.1326629 0.093278915 -0.006165422 -0.021429973
000270 f7 b5 d8 3d a7 04 10 ba b3 52 e3 3d 5c f2 8a 3d
       0.10581582 -0.00054938573 0.11099758 0.06784508
000280 ac 61 95 bd bc 27 42 be 5d cf 33 be 70 a6 bf 3c
       -0.0729402 -0.1896047 -0.17559572 0.023394793
000290 5d 42 23 be 90 e3 0e be 49 66 4e be 99 9f 2b be
       -0.15943284 -0.13953996 -0.20156206 -0.167601
0002a0 cc 68 b1 bd 6d e4 c4 3d d3 33 2e 3d f5 2f fa 3d
       -0.086625665 0.09613881 0.042529892 0.12216178
0002b0 1f 5d a3 bd bf 07 a6 bd ea e6 e2 bc 3b 72 73 3d
       -0.07976746 -0.08106946 -0.027697999 0.05943511
0002c0 c9 ad 76 bd eb f3 33 3c a1 52 e7 bd eb 2c 12 bd
       -0.06022433 0.010983448 -0.11295057 -0.03568737
0002d0 c8 73 28 3e 51 0d 9d bc 50 05 bc 3d 4a b1 12 be
       0.16450417 -0.019171389 0.09180701 -0.14325443
0002e0 8a 5b 22 3c 5a b3 66 bd 74 5e ff bc e9 95 b7 bd
       0.00990952 -0.056323387 -0.031172968 -0.0896414
0002f0 58 dc f0 bd 94 8c 13 be a2 02 b0 bd 94 3d 2e bc
       -0.11760777 -0.14409095 -0.08594252 -0.010634799
000300 b5 45 95 3c 49 30 47 bd 37 6c ce 3d 95 d2 3e 3e
       0.018221715 -0.048630033 0.10079234 0.18635018
000310 32 94 ba bd 59 1e a4 3c 1b 9c ac 3d 78 34 0a be
       -0.09110297 0.020034002 0.08428212 -0.13496578
000320 2b 3b e9 bd 87 c9 12 3d b3 59 8e 3c 7e 14 72 3d
       -0.113882385 0.035836723 0.017376756 0.059101574
000330 bc 23 e2 bc f7 37 d6 3b be 0e 09 3e a3 8a ed bc
       -0.02760493 0.0065374332 0.1338453 -0.028996771
000340 5d 28 fb 3c 93 f1 11 be 1a 49 59 bd 0e b7 75 3d
       0.030658895 -0.1425231 -0.05304823 0.059989028
000350 3b f2 28 be f7 99 cc bd 4f dd d5 3d f9 60 5a bc
       -0.16498654 -0.09990304 0.10442602 -0.013328784
000360 54 19 e7 bd 12 8a 89 bd 0e 79 8e bd 41 54 81 bd
       -0.11284128 -0.06715788 -0.06956683 -0.06314898
000370 a2 08 1e be b7 56 a5 3c 57 94 65 3b 0e a8 96 bd
       -0.1543298 0.02018295 0.0035031044 -0.07356273
000380 db 3c 1d 3c d8 09 56 3e 8c d0 2f be 59 06 ed bd
       0.009597029 0.20902193 -0.17169398 -0.11573476
000390 a1 83 9c bd e4 d6 e7 bc 01 50 13 3e d3 c6 a6 3d
       -0.07642294 -0.02830071 0.14385988 0.081433915
0003a0 1a 13 01 be 65 ba c3 bd 21 fa bc bd 91 f7 23 bd
       -0.12604943 -0.09557036 -0.09227396 -0.04003102
0003b0 5e 34 6a 39 8c 1e 0e be 76 dc a2 3c 18 e3 17 3d
       0.00022335487 -0.1387884 0.019880515 0.037081808
0003c0 6c 69 35 bc df d8 b0 3c 1d 78 e5 bc d4 2b f6 3d
       -0.011072498 0.021587787 -0.028011376 0.12020078
0003d0 a5 68 a0 bd 89 02 3d 3e 5a 24 02 3e 07 19 eb 3d
       -0.07832459 0.18457998 0.1270918 0.11479383
0003e0 0d 6e f7 3d 47 39 2d be bc 1b 13 bc b2 57 1a 3d
       0.120815374 -0.16916381 -0.00897878 0.03768129
0003f0 04 92 79 3d 86 da 54 3d e3 53 cd bc 60 eb 2c bd
       0.060930267 0.051966213 -0.025064414 -0.04221666

encoder.layers.0.self_attn.in_proj_bias f4 [192]
000000 c9 32 22 ba 7d 08 55 3c a5 1a f0 3c 20 43 7e bc
       -0.0006187377 0.013002512 0.02930958 -0.015518934
000010 7c 10 12 bd f7 98 32 bc 51 86 cd bb 9d a4 17 3c
       -0.035660252 -0.0109007275 -0.0062721153 0.009255555
000020 4c 6a 7f bc f0 20 d7 3c 08 d8 01 3c 58 03 69 ba
       -0.015589308 0.026260823 0.007925041 -0.0008888743
000030 ba 28 cc bb 99 4e cb 3c 1c 29 de 3d 8f 88 0b be
       -0.006230441 0.024817752 0.10847685 -0.13626312
000040 f0 b6 9d 3d 90 1c 8d 3c b4 13 2f 3e 09 92 81 bc
       0.07700908 0.017225534 0.1709736 -0.015816705
000050 7d 9e b5 3d 94 31 81 bd 1a 94 3f bb 89 f1 08 3e
       0.0886812 -0.063082844 -0.0029232563 0.13373388
000060 c8 2d 34 3d 6a 95 07 bd d9 8d fa bb e8 7e 6c bd
       0.043988973 -0.033101477 -0.007646304 -0.057738215
000070 f6 1e 11 3d 28 27 c0 b9 dc 2d 57 3d ef a9 0a ba
       0.035429917 -0.00036650267 0.05253397 -0.00052896043
000080 51 c3 9a 3d c6 a6 ce bc ce b9 89 3c 21 12 07 3d
       0.07556785 -0.025226008 0.016812231 0.032976273
000090 32 34 c3 3d 23 0e 76 3b 42 d7 ae bb b5 fb e5 bc
       0.0953144 0.0037545047 -0.0053357193 -0.028074125
0000a0 fb e3 7a bc 98 19 30 be 80 f9 11 3d bf 59 1c bc
       -0.015313144 -0.17197263 0.035638332 -0.0095428815
0000b0 f1 3a 7a 3b 1f ee a5 bc c9 ad e4 bc 13 72 da ba
       0.0038182104 -0.020255147 -0.027914898 -0.0016666077
0000c0 8c 9f 2c bd 40 a3 c4 bd 69 2b 60 bd 27 d7 7b bd
       -0.042144343 -0.0960145 -0.0547289 -0.061484482
0000d0 0d f8 db 3d a2 8e 0e be 03 d7 24 be 79 db c0 bd
       0.10740671 -0.13921598 -0.16097645 -0.09416861
0000e0 75 b1 86 bd d6 65 a9 bd 86 71 01 be e4 3d 17 3d
       -0.06576816 -0.08271377 -0.12640962 0.036924258
0000f0 cf ed ef 3d eb 24 5f bd be 22 16 38 ac a3 e0 3d
       0.1171528 -0.054478567 3.5795143e-05 0.10968718
000100 b6 40 e5 bb 00 64 b9 39 6d 2e 25 3c fb 74 70 bb
       -0.0069962395 0.00035360456 0.01008187 -0.003669082
000110 1d 93 7c bb 2f d9 47 ba 72 a4 e1 bb 15 0c 06 3c
       -0.0038539835 -0.00076236104 -0.0068860585 0.0081815915
000120 ea 34 b2 bb dd b3 6c 3c 44 bb ca 3b 10 02 14 3b
       -0.0054384368 0.01444718 0.0061868746 0.0022584237
000130 50 90 db bb 29 16 a1 bb 07 5d a7 3c 56 94 9e bc
       -0.006700553 -0.004915972 0.020430101 -0.019357841
000140 6e fe e9 3b 5a 02 52 ba 2c 4a 35 3c e9 0c 64 bc
       0.007140926 -0.00080112147 0.011065047 -0.013919094
000150 dc 2d 18 3c c3 e0 a4 bc 22 1c cb 3b a5 69 d0 3b
       0.0092882775 -0.020126706 0.006198422 0.00636025
000160 a5 78 d2 ba 09 f5 01 bc cb 93 38 3c 31 ca 5d bb
       -0.0016057683 -0.007931956 0.011265705 -0.003384244
000170 89 55 53 3c e3 2b 4a bb df ab ef 3b 8b 86 b6 bb
       0.012898811 -0.0030848912 0.00731419 -0.005570238
000180 71 81 1e 3b e6 39 17 bb a7 61 a5 3b 80 75 f2 3b
       0.002418604 -0.0023075282 0.0050470415 0.007399261
000190 81 44 f5 3b 57 e1 fa 3a 27 86 86 bb 15 79 38 3b
       0.007484973 0.0019140643 -0.0041053477 0.0028148342
0001a0 6a 24 93 bb 1d 71 f5 bb 2a 90 ec ba 98 38 f0 ba
       -0.004490425 -0.007490291 -0.0018048335 -0.0018327413
0001b0 d7 08 e0 3a 80 35 77 bb b9 78 7c bb 78 89 99 3a
       0.0017092478 -0.0037721097 -0.0038524105 0.0011713943
0001c0 df be 69 3b da 17 65 bc 1d a7 06 bc 41 83 97 bc
       0.0035666747 -0.013982737 -0.008218554 -0.018495204
0001d0 23 66 89 3b a2 d1 8a bc c7 fd 3e bb 84 f1 83 3b
       0.004193084 -0.016945664 -0.0029142962 0.0040265936
0001e0 64 ea 2e 3c 85 db ea 3b ce 17 12 bc 36 3c fc 3b
       0.010676 0.007167282 -0.008916808 0.0076976074
0001f0 9a 4a 62 3a 80 19 de 3a 70 08 d2 3c 2f 85 aa bb
       0.00086323323 0.0016944855 0.025638789 -0.005203865
000200 ba ae 81 bd f5 82 35 bb 28 69 46 bd 38 d8 31 bd
       -0.063321546 -0.0027696465 -0.04844013 -0.043419093
000210 f1 10 dd bc 53 91 68 bc 05 cd f4 3c 82 ea a3 ba
       -0.026985617 -0.014194804 0.029882917 -0.0012505802
000220 6a 89 ec bc b6 9c e1 bc 34 d9 8b bd f3 0e 06 bd
       -0.028874118 -0.027540546 -0.068285376 -0.0327291
000230 ef c2 4c bc b3 6b 22 bc ed cb 62 3d 79 49 0a 3d
       -0.012497648 -0.009913373 0.05537026 0.033761475
000240 03 36 9d 3c f4 8f 99 3c d3 af 30 3d 0f e4 78 3c
       0.019190794 0.0187454 0.04313643 0.015191092
000250 3b 35 f4 bc b2 41 83 bc 68 6f d1 bc 55 f9 05 bc
       -0.029810539 -0.016022537 -0.025565818 -0.008177121
000260 84 9e ca 3c cd bd 67 bd 16 bb c0 3a 4a 4e 03 bd
       0.02473379 -0.056577493 0.0014704193 -0.032057084
000270 2b 4c ad bb ad 2a 1c 3d 17 2c 2d 3b fe 11 81 3b
       -0.005288621 0.038126636 0.0026423985 0.0039389124
000280 e4 83 23 3c aa 75 b6 bc 8e 09 c7 3b 17 ae 35 bd
       0.009980176 -0.022272903 0.006074137 -0.04435548
000290 36 79 bc bc 28 35 78 bc 1b 91 98 3c cb c6 d2 ba
       -0.023007017 -0.015149392 0.01862388 -0.0016080973
0002a0 17 0c 3c 3c c5 98 39 3d 11 2a 3e 3c 3e db 95 3c
       0.011477492 0.045311708 0.011606709 0.01829302
0002b0 ef a5 90 bc e6 65 9c bc 11 b4 d1 3c 30 bf 08 3d
       -0.017657248 -0.019091558 0.025598558 0.033385456
0002c0 de 5b 31 3c 44 0a 11 bc ae 79 86 3c 66 56 06 3a
       0.0108251255 -0.008852545 0.016415443 0.00051245687
0002d0 1e 9e fa 3b 6d f1 2a bc 2d 7e 0d 3c 4a fc 13 3d
       0.0076482436 -0.010433537 0.00863604 0.036129273
0002e0 c7 d1 42 bc b3 91 2c 3c 79 03 65 ba 2a bb 4f bb
       -0.011890835 0.010532784 -0.0008736174 -0.0031697252
0002f0 53 be d9 bb 78 8b f4 bb bc 36 9d bc 47 bc 45 bc
       -0.006645003 -0.007462915 -0.019191138 -0.012068815

encoder.layers.0.self_attn.out_proj.weight f4 [64, 64]
000000 47 d9 e9 3d 40 7e a0 b9 7a cb ce 3d 12 51 8a 3c
       0.114183955 -0.00030611642 0.10097404 0.01688436
000010 a1 7d f5 bd 09 71 b9 3d 06 46 82 bc c0 7c 9c bd
       -0.119868524 0.09054763 -0.01590253 -0.07640982
000020 19 5e e9 bd 1f 84 7f bd 97 61 58 3d 40 18 33 bd
       -0.11394901 -0.06238186 0.052827444 -0.0437243
000030 08 14 d4 3c 7a b7 f1 bd d4 ef a7 3d c1 a7 02 be
       0.025888458 -0.118025735 0.082000405 -0.12759306
000040 7f dc e1 bb d2 16 5e 3d e7 7e 88 3d 62 22 d1 3d
       -0.0068927403 0.054220982 0.0666483 0.10211636
000050 3d 90 0a 3e 4d 5e b3 bd b1 0d 88 3d 17 f0 98 bd
       0.13531585 -0.08758221 0.066432364 -0.074676685
000060 b6 ad cd bc 27 6f 79 bd a6 32 f4 3d 2a dc ed bd
       -0.025107246 -0.06089702 0.11923723 -0.116142586
000070 76 4f db 3d 19 47 33 3c b6 31 ab 3d 71 24 c3 bc
       0.10708515 0.010942244 0.08359091 -0.023821088
000080 38 5b 9c 3d ed 00 49 3d 64 dd 4c 3c cf 06 be bd
       0.07634586 0.04907315 0.0125039555 -0.092786424
000090 d7 62 94 3c 17 0d c3 3b f1 77 e1 3b 32 4e b8 3d
       0.018113537 0.005952488 0.006880753 0.089992896
0000a0 d2 4a 93 3c 6c 9e 56 bd d7 db 36 bd 6f df c1 bc
       0.017980013 -0.052397177 -0.04464325 -0.023666112
0000b0 3f b7 92 3d 18 98 61 bd 0b 79 44 bd 33 d2 ee bc
       0.07163858 -0.05507669 -0.047966998 -0.029152965
0000c0 1e 99 3b bd 9b 26 50 3d ac bd 0e 3e 4f 6e 08 be
       -0.04580032 0.050818067 0.13939542 -0.1332333
0000d0 42 d9 22 3d 04 89 00 3d 38 98 61 3b 04 a5 54 bd
       0.039757974 0.03138067 0.0034423005 -0.051915184
0000e0 e2 8c 1a 3d 88 88 b4 3d c2 8c 4f 3d 25 03 27 bc
       0.037732013 0.08815104 0.050671346 -0.010193621
0000f0 82 b5 a4 bd ca 1a b6 bc b9 21 1f bc 3b 03 48 bd
       -0.08042432 -0.02222957 -0.00971263 -0.048831206
000100 d8 00 aa 3d 0a 8b e6 3d b1 06 9d bc b0 2b 39 bd
       0.08300942 0.11256988 -0.01916823 -0.04520768
000110 1b b9 e4 b5 f4 f0 f1 bb e6 b0 3a 3d 9b c5 ae 3d
       -1.7041197e-06 -0.00738346 0.04557886 0.08533784
000120 0c e4 f4 bd a2 42 0d bc 31 e6 f3 3d 1d 07 17 3d
       -0.11957559 -0.0086218435 0.1190914 0.036872018
000130 36 25 cd bc cd 79 89 bd 63 e4 97 bd 5d 29 f4 bd
       -0.025042158 -0.06712685 -0.07416608 -0.11921952
000140 06 b6 0a bd 58 c5 a5 3c 4d c7 b4 3d 3e 00 89 3d
       -0.033864997 0.020235702 0.08827076 0.06689499
000150 f3 ac f4 bd c3 80 b7 bd 01 33 42 bd f5 99 dd 3d
       -0.1194705 -0.08960106 -0.047411922 0.108203806
000160 92 89 97 3c cd 9c e0 bc 4c b8 0d 3d 02 f6 2e bd
       0.018498216 -0.027418518 0.034599587 -0.04271508
000170 5b 7e 75 bd f2 6a c1 3d e0 7d 46 bd 6c 29 82 bc
       -0.059934955 0.09444226 -0.048459888 -0.015888892
000180 05 24 17 be fc f5 33 3e 34 f7 c5 3d 86 f1 96 3d
       -0.14759834 0.17574304 0.09666291 0.07370286
000190 ca 8b bf bd 6e bd 5f bd 20 ab 92 bd bc 00 93 3d
       -0.093528345 -0.054624014 -0.07161546 0.071778744
0001a0 b8 c7 89 3d 77 e9 cb 3d f8 aa 06 3e 2f 38 62 bc
       0.067275465 0.09956639 0.13151157 -0.0138073405
0001b0 e4 8d 06 3c 1f 8c 06 be bf 09 ff bd 00 fe e7 bd
       0.00821254 -0.1313939 -0.12453031 -0.113277435
0001c0 23 aa a8 3d b4 b7 77 bd 38 e2 8e bc da f9 09 bd
       0.08235576 -0.060477927 -0.017441854 -0.033685543
0001d0 34 2a b1 bb df be 9f bd b4 e1 bf bd 44 b6 1e 3d
       -0.0054066423 -0.07800078 -0.09369221 0.03874804
0001e0 a6 50 02 bd 9c 50 aa 3d a4 1a 20 bd 00 e9 8b bd
       -0.031815194 0.08316156 -0.039087906 -0.068315506
0001f0 56 03 e8 bd 4f 0f af bd d3 b3 04 bd dd 1d 78 be
       -0.11328761 -0.08547842 -0.032398056 -0.24230142
000200 08 40 85 3d 65 e8 a9 bd 4c 56 61 3d e5 ee dd 3c
       0.065063536 -0.08296279 0.05501394 0.027091453
000210 e7 c1 bc 3d 99 5d c7 bd 11 bb a5 3d 20 52 dc bc
       0.092166714 -0.09734649 0.08092321 -0.026894629
000220 f6 73 2d 3d f1 c4 10 3e e7 02 8c bc 61 c8 c4 3a
       0.042346917 0.14137627 -0.017091228 0.0015013331
000230 4e 23 f9 bc 87 b6 ac bd b7 a5 88 3d ae bb 00 be
       -0.030412342 -0.08433252 0.066722326 -0.12571594
000240 29 cd e1 3d 9b 5b f2 3d 83 d2 0b 3e 37 f5 4f bb
       0.11025459 0.118338786 0.13654523 -0.0031731853
000250 a7 c7 f2 bd f8 7c 58 3d 1f 91 13 3e 25 51 35 be
       -0.11854487 0.052853554 0.14410828 -0.17706735
000260 57 1f 50 bd 9e 4d b1 bd 09 b5 55 bd e9 86 c6 bd
       -0.050811138 -0.086573824 -0.0521746 -0.09693701
000270 06 f1 1b bc 7d 0f 71 bd 12 91 e0 bc ae 19 f4 3d
       -0.009517914 -0.05885266 -0.027412925 0.119189605
000280 27 ec e9 3d e3 ac 32 bd 56 9f fb bb eb 23 7b bd
       0.114219956 -0.04362191 -0.0076789064 -0.06131355
000290 2e af f2 bd d7 e6 0e be b2 09 4d 3d 81 93 86 bd
       -0.11849819 -0.13955246 0.050058074 -0.06571103
0002a0 4d 97 67 bd 82 54 67 3b d4 8a 22 bd 85 d6 46 bd
       -0.056540776 0.0035298173 -0.039683178 -0.048544426
0002b0 32 b7 24 bc a2 23 b0 bc f8 fd 33 bc 19 18 03 bd
       -0.010053443 -0.021501366 -0.010985844 -0.032005403
0002c0 17 55 08 be 43 6a 62 3d 6c e7 05 bd d2 a4 1a 3d
       -0.13313709 0.05527712 -0.032691404 0.03775484
0002d0 fb bd 24 3c 8c 9f bc 3c e0 1d b0 3d 96 fd 9c 3d
       0.0100550605 0.023025297 0.08599448 0.07665555
0002e0 05 9c 0b be 6d da 2b 3d f5 ee 16 3e f0 98 a1 bc
       -0.13633735 0.041956354 0.14739592 -0.019726247
0002f0 91 87 18 3c a4 60 01 3e 12 04 59 bc a1 f5 3e bd
       0.009309665 0.12634522 -0.013245599 -0.04662097
000300 5b 7c c3 bd 46 7d 6b b9 87 de 95 3d 56 79 53 3d
       -0.09545203 -0.00022458014 0.07317834 0.051629387
000310 af e9 b0 bd 39 28 d9 bd 8b 03 8b bd 85 9c b2 bd
       -0.086383216 -0.10603375 -0.06787785 -0.0872126
000320 6e 34 02 be 3c 5b b5 ba 3b 65 b7 3d 4b e7 0f bc
       -0.12715313 -0.0013836394 0.08954855 -0.008783172
000330 24 62 e6 bd 79 a1 bf bd 0e bf 8c 3d 98 b7 bd bd
       -0.112491876 -0.0935697 0.06872378 -0.09263533
000340 6c 71 0a bd 6b 16 cd 3c 68 f2 d5 bc d3 11 99 bc
       -0.033799574 0.025035104 -0.026116565 -0.018685257
000350 ad 11 05 bd ab 15 9e bd d0 f8 e6 bd ee bc a9 bd
       -0.03248756 -0.077189766 -0.11277926 -0.082879886
000360 fa 82 de bd 66 8c 8c bd 03 3f d7 3d e0 81 58 bd
       -0.108648255 -0.068627164 0.105100654 -0.052858233
000370 0e 8e d8 bd 1e 63 5c 3d 0e 64 9f bc f2 25 84 3d
       -0.1057397 0.053805463 -0.01945689 0.0645255
000380 f8 55 e0 3d 16 40 d6 3d 02 7a a8 bd d1 33 95 3c
       0.10953897 0.10461442 -0.08226396 0.018213185
000390 b3 aa 57 3d dc 96 2a bd 12 40 a6 bd 25 b8 12 3e
       0.052653026 -0.041647777 -0.08117689 0.14328058
0003a0 ac 5c b4 bd bf 3f 5f bd 41 b8 14 be 64 0f dd bc
       -0.08806738 -0.054504152 -0.14523412 -0.026984878
0003b0 1c aa 08 3c 02 8a 29 3d 59 03 ba 3c 29 ca 8b bd
       0.0083413385 0.04139138 0.022706674 -0.06825668
0003c0 cb e2 be bd 8c 8b 74 bd 8a d1 0a 3e 16 82 85 3d
       -0.09320601 -0.059703395 0.13556495 0.065189525
0003d0 d9 4f 47 bd 28 7a 1d bb 85 e5 b9 bd c0 25 55 bd
       -0.048660133 -0.002402911 -0.090769805 -0.052037954
0003e0 b9 91 23 3c f7 d9 81 3d dd e5 fd 3d 27 88 04 be
       0.009983473 0.063404016 0.123973586 -0.12942563
0003f0 79 c9 9f ba cc e2 c3 bd 91 e9 3f 3d 49 15 b9 bc
       -0.0012190781 -0.095647424 0.046853606 -0.022593157

encoder.layers.0.self_attn.out_proj.bias f4 [64]
000000 b6 67 08 3d e0 1a e0 3b e1 72 2b bc e0 74 a2 b7
       0.03330203 0.0068391412 -0.010464401 -1.9366329e-05
000010 bf dd a8 3b 91 46 65 3c 82 49 ab bc 3b 97 04 3d
       0.0051533873 0.013993875 -0.020909075 0.032370787
000020 5d cb 5f 3c 69 2d 68 bc 75 de 83 3c c1 9e 94 3c
       0.013659325 -0.014170983 0.016097287 0.018142106
000030 64 a8 ac 3c db 96 d5 3a c2 9c ac 3b 77 2c 49 3c
       0.021076389 0.0016295569 0.0052677104 0.012278668
000040 53 07 29 bc b2 91 54 3c f7 c6 e6 bb 67 fa 82 bc
       -0.010316688 0.01297419 -0.0070427614 -0.015988542
000050 98 f3 dd bc 35 8d 4f bc 34 42 ac bb 83 d6 bb 3c
       -0.027093694 -0.012667944 -0.0052569155 0.022929436
000060 24 ed f5 bc e1 90 cc bc 46 40 fd bc 3c c7 67 3b
       -0.030020304 -0.024971427 -0.030914437 0.0035366556
000070 58 33 19 3b a7 5c 01 bd 5d 53 cc 3c b9 1e 57 bc
       0.002337655 -0.0315825 0.024942094 -0.013129883
000080 c1 13 32 3b b3 53 55 3c 66 08 13 3c a8 9e f4 3c
       0.0027172419 0.013020444 0.00897417 0.02986081
000090 86 51 2c 3a 2f 9d 85 3c 4a c3 da ba 75 b2 48 3b
       0.0006573427 0.016310303 -0.0016690281 0.0030623947
0000a0 77 29 fb 3a 69 40 0f bd c0 fd ca 3c 06 19 17 3d
       0.0019162138 -0.034973536 0.0247792 0.0368891
0000b0 eb 78 ae 3c e5 c3 67 3c b3 95 2b 3c 6b ec 63 b9
       0.021297893 0.014145826 0.010472703 -0.0002173648
0000c0 8b b9 97 3b 9e 9b 97 3c 35 b6 93 bc 2e 19 ac 3b
       0.0046302727 0.018506821 -0.018031219 0.005252025
0000d0 a4 e3 5a bc d6 78 48 3d b1 81 d1 3b 2a d7 1c bc
       -0.013359938 0.048943363 0.0063936342 -0.0095727835
0000e0 f3 bc 69 bc 65 a8 1c bc b1 cf 6a 3c a3 c4 02 bd
       -0.01426624 -0.009561633 0.014331744 -0.03192581
0000f0 35 14 9f bc e2 7e 2c bc dd 61 b6 3b fd 3d df bb
       -0.019418815 -0.010528298 0.0055658654 -0.0068128095

encoder.layers.0.linear1.weight f4 [128, 64]
000000 4b bd ae bd 3b 29 88 3d f7 25 03 bc 97 0d 63 3d
       -0.085321985 0.06648489 -0.008004657 0.055432882
000010 f6 cd b3 bd aa 32 0c 3e 27 8f 71 bc 7b f2 f8 3d
       -0.08779518 0.13691202 -0.014743603 0.121556245
000020 a6 b3 9d bd 22 b0 bb 3d a9 f0 08 3d e3 c1 73 bc
       -0.07700281 0.09164454 0.033432636 -0.014877769
000030 49 bb e8 3c 95 fc 10 be f7 ab 48 bd 6d 50 ac bc
       0.028409617 -0.14158852 -0.048992123 -0.021034444
000040 0a 9d 0a bd 76 29 93 3d 80 b6 b3 3d b4 92 f6 3d
       -0.03384117 0.071856424 0.087750435 0.120397
000050 52 a5 c5 bd 28 cd b0 bc b3 e6 1b be ef cc 84 bd
       -0.09650673 -0.021582201 -0.15224724 -0.064844005
000060 19 ed 0f 3d 7e 38 e6 3c 97 9a db bd cb 1a ea bc
       0.035138223 0.02810311 -0.10722845 -0.028577229
000070 ca 5f 21 bd 82 d4 fe bc 02 f9 bb bd 5b 38 32 3d
       -0.039397992 -0.031107191 -0.09178354 0.043510776
000080 b2 85 6f bd 89 b3 96 bd 06 7a 2c bd 64 d9 4a 3d
       -0.05847711 -0.07358462 -0.042108558 0.049523726
000090 69 8d ab 3d 16 83 11 bb bc 7e 63 3d 8c 12 ce bd
       0.08376581 -0.0022203377 0.055540785 -0.10062131
0000a0 b4 86 ba bd 82 bc b0 bd 9c ab 3e bd 66 9d ba 3d
       -0.09107724 -0.08629705 -0.04655038 0.091120526
0000b0 90 43 14 bd 2a 8c be bd 8d 44 0a bd ed e4 a8 3d
       -0.036197245 -0.09304078 -0.03375678 0.08246789
0000c0 49 e7 a5 3d 1c 6a 0e be 78 62 a1 3d 26 75 18 be
       0.08100755 -0.13907665 0.078801095 -0.14888439
0000d0 49 aa 96 bd 98 1c c0 bd 49 ac 2e bb 7c 71 50 3d
       -0.07356698 -0.09380454 -0.0026652983 0.050889477
0000e0 c3 92 c2 3d a3 d5 5b bd f8 38 61 bd c2 33 8f 3d
       0.09500649 -0.053670537 -0.05498597 0.06992294
0000f0 f9 06 a6 3d 43 7e 06 be 0c eb c7 3c 51 a3 c6 3d
       0.08106799 -0.13134103 0.024404071 0.09699119
000100 af 62 1e bb 6b 4b d6 bc 24 ab 71 bd aa aa 56 3b
       -0.0024167707 -0.026159009 -0.059001103 0.0032755532
000110 33 a0 ab 3d b7 0a 8c bd 2d 09 bf 3d 6d cd 16 be
       0.08380165 -0.06837981 0.09327922 -0.14726801
000120 e9 67 d3 3b 82 a1 3d 3e f8 67 8b bc 62 70 5e bd
       0.006451596 0.18518642 -0.01701735 -0.054306395
000130 4c 61 1a bd 2c a0 80 bd dc 84 b6 bd 96 46 3e be
       -0.037690446 -0.0628055 -0.0891206 -0.18581614
000140 b7 a9 34 bd e0 48 89 bc 5a 4d a8 3d 9c 8a 7a 3c
       -0.044107165 -0.016758382 0.08217879 0.015291836
000150 b5 d4 19 bc 64 ab c6 bd d9 58 aa 3b 3c 38 c3 3d
       -0.009389092 -0.09700659 0.0051985797 0.0953221
000160 4a 52 cf 3c f7 c8 16 bd 60 db 32 bd e7 bb b6 3d
       0.025307793 -0.03681275 -0.043666244 0.08922558
000170 86 68 e0 bd 18 31 c1 3d 83 70 09 bc bb 69 a5 3d
       -0.10957436 0.09433192 -0.008388641 0.08076807
000180 d2 46 8f 3d a1 1f d7 3b 7a 0c 1c 3d 3a bc eb 3d
       0.0699593 0.0065650498 0.038097836 0.11510511
000190 60 c4 8e 3d 79 dd 4a bd 28 aa 6c 3d 02 a7 52 3a
       0.06971049 -0.04952762 0.05777946 0.00080357504
0001a0 48 b1 2d bd 32 27 1a 3d ef 3c 16 3e 4c 4f 0c 3e
       -0.042405397 0.037635036 0.14671682 0.13702124
0001b0 4d 73 a0 bd 4a 16 d2 3d 0b 85 1f 3c 89 d8 dc bd
       -0.07834492 0.102581576 0.00973631 -0.10783488
0001c0 2b 89 29 3d fd 9d 45 bd 4a 29 41 3d dd 44 12 bb
       0.04139058 -0.048246372 0.047158517 -0.0022318878
0001d0 8f 19 00 3d 3f 2c 67 bd 33 df 87 3d 1a b4 9a bd
       0.031274375 -0.05643868 0.06634369 -0.07553883
0001e0 bd 28 e3 3b ad da 89 bd fa e2 0f bd fd a4 2f 3d
       0.0069323466 -0.06731162 -0.03512857 0.042881954
0001f0 66 31 9c ba 6a 15 ad bc 6b bf 92 3d de af a1 3d
       -0.0011916577 -0.021128375 0.07165416 0.07894872
000200 af 33 13 be 82 ea 81 bd f6 b4 8d bd c3 cb a5 bd
       -0.14375184 -0.06343557 -0.06919281 -0.08095505
000210 2d bb a4 bc af 0a 9e bc 1d 5f ba bd e0 32 e8 bd
       -0.020108784 -0.019292204 -0.09100173 -0.11337829
000220 99 52 36 be a4 94 1b 3c 39 96 ee 3d 7d 9b 06 3d
       -0.17804946 0.009495888 0.116497464 0.03286313
000230 16 0e 8c bd f9 5e c0 bd e0 ae 3b bc e2 73 ab 3d
       -0.06838624 -0.093931146 -0.011455268 0.08371712
000240 4c c6 aa bd a8 2c 10 3e 96 c2 cb 3d 3d b0 d6 3d
       -0.083386034 0.14079535 0.09949224 0.104828335
000250 4a 60 27 3d 5d 3b 2f 3e 8a 13 27 be c2 ee e8 bc
       0.040863313 0.17112489 -0.16316047 -0.028434161
000260 a4 04 c0 3c 33 e3 e8 bd 18 86 50 3c 35 db be 3d
       0.023439713 -0.1137146 0.012727283 0.09319154
000270 39 90 09 bd 5e 6e 83 3d ef ae 96 bd eb 4c 83 3d
       -0.033584807 0.06417535 -0.07357585 0.06411155
000280 83 92 11 be d3 7c 06 3e f4 04 28 3e 45 7c a9 bd
       -0.14216046 0.13133554 0.1640814 -0.08275656
000290 9d 3d ab bd 45 2c 81 3d 7a 9f 8b 3c 3f dd b9 3d
       -0.08361361 0.06307272 0.017043818 0.090754025
0002a0 17 6b a4 bd 65 fd d9 bb 06 a5 bf bc 63 d4 a9 3d
       -0.08028238 -0.0066525214 -0.023394119 0.08292463
0002b0 ea ab 86 3d ff 93 96 bd 06 0c db bd 27 81 d2 bd
       0.06575759 -0.07352447 -0.10695653 -0.1027854
0002c0 6a fc 36 3d f5 08 cf bc 90 14 4c bd 1f dc 4a bd
       0.044674315 -0.025272826 -0.049824297 -0.04952633
0002d0 a6 82 f0 bc ef d3 9e bd 49 90 33 bc b5 07 94 bd
       -0.029359173 -0.07755267 -0.010959693 -0.072280325
0002e0 23 e8 1a 3d 44 2d 32 3e 6d f6 4d 3b 7d 26 e2 3c
       0.03781904 0.1740008 0.0031427399 0.027606243
0002f0 1b 27 18 3e ce 1f 29 bd 60 d9 88 bd 68 b4 60 bd
       0.14858668 -0.041290097 -0.06682086 -0.05485955
000300 17 99 c7 bd 3d f7 1a 3e 18 ea e7 3c 08 ec df 3d
       -0.097459964 0.15133376 0.028309867 0.10933691
000310 41 02 0b 3d a5 6c 0d 3e ea f8 59 be 53 2c 92 bc
       0.033937696 0.13810976 -0.2128636 -0.017843401
000320 76 2f 82 bd 66 50 61 3c 45 d6 1d bd f5 48 f7 3d
       -0.06356709 0.013752079 -0.03853442 0.12074462
000330 c8 19 65 bd 49 a8 c3 bd 61 e5 a7 3d 3a 37 29 be
       -0.05593279 -0.09553582 0.081980474 -0.16524974
000340 73 ac 2b bd c9 0d 28 be 14 eb 9b bd 7f 40 b8 3d
       -0.041912507 -0.16411509 -0.07613197 0.08996677
000350 a7 1c 26 bc a2 f8 f7 3b 50 fa 07 be db ff 39 3e
       -0.010138667 0.007567481 -0.1327908 0.18164007
000360 d7 59 44 3e 5f a1 e7 3c ec fb 71 bd c3 04 53 3c
       0.19174896 0.02827519 -0.059078142 0.012879553
000370 5a f4 4c bc 6a 0f 91 bc b8 79 25 3e 8f 05 6f 3e
       -0.01250943 -0.017707545 0.16159713 0.23341964
000380 de ff 47 3d f5 8b 8e bd cb c8 01 3d 2e 74 15 3e
       0.048828 -0.069602884 0.03168563 0.145951
000390 f7 82 4e bd bd 8f 84 3d aa 2d c5 3c 7c 62 5d bd
       -0.050417867 0.064727284 0.024069626 -0.054049
0003a0 0c fc b8 bd 6a 5b f9 bd 7d b1 b1 3c d8 b9 0e 3e
       -0.09032449 -0.12175639 0.021691078 0.13938081
0003b0 57 b0 4e 3d 36 22 e9 3d e2 5e 3e 3d 14 d3 11 be
       0.05046114 0.11383478 0.046477206 -0.14240676
0003c0 15 de 75 bd c6 ec 2a bd 0b 2a 6d bd b9 84 57 3e
       -0.060026247 -0.04172971 -0.057901423 0.21046723
0003d0 b8 c9 b4 3c 7b dd 71 bd bc 6d b4 3c 75 53 16 3d
       0.022068843 -0.05904911 0.022024982 0.036700685
0003e0 ac 66 2c bd af fa 34 3d 52 d4 c8 3d 33 1a 26 3e
       -0.042090103 0.044184383 0.09806122 0.16220932
0003f0 f0 2f 88 bd 19 f3 01 bd ba 47 3b bc 12 23 85 bc
       -0.06649768 -0.031725977 -0.011430675 -0.016252074

encoder.layers.0.linear1.bias f4 [128]
000000 4b 82 fe 3c 4a db e1 bb 01 1e 64 3c 92 07 23 be
       0.031067988 -0.0068925964 0.013923169 -0.15920857
000010 34 2c 08 bd ad 71 be 3d 97 07 c5 bc d4 53 00 3e
       -0.03324528 0.09299026 -0.02405147 0.12531978
000020 bf bd 79 bd 37 7d dd bc 48 02 4a 3d ab b9 71 bc
       -0.06097197 -0.027037246 0.04931858 -0.014753739
000030 ae bb 16 3d 51 7d 9e 3d 0e dd 7b 3d e4 71 4a 3c
       0.03680008 0.07738746 0.06149011 0.012356255
000040 89 3f 6d 3d a5 5a 84 3d a2 a5 11 be 88 23 a9 3d
       0.05792192 0.064626016 -0.1422334 0.0825873
000050 70 b6 52 3d bb 45 57 3c c8 58 cc bd 6d 32 bd 3d
       0.051443517 0.013139184 -0.09977871 0.092381336
000060 e4 d7 ce 3b e3 48 09 3c 05 51 29 be 5f 4a 9d 3d
       0.0063123573 0.008379194 -0.16534813 0.07680201
000070 f9 18 10 be 21 d0 90 3b 3f 51 8c 3d 40 08 83 3d
       -0.14072026 0.004419342 0.06851434 0.06398058
000080 a5 46 82 bd bc 8c 5b bd d1 b8 b9 bd f8 36 94 bd
       -0.063611306 -0.05360101 -0.09068454 -0.07237047
000090 45 c1 a8 bd e4 dc 6a 3d 15 3f 76 3d 71 e8 38 bd
       -0.08239988 0.057339564 0.060118753 -0.04514355
0000a0 05 e4 8c 3c 4e 09 93 bb 63 53 9b bd 3d 55 6a 3d
       0.017198572 -0.004487193 -0.07584264 0.057210196
0000b0 99 45 c7 bd 53 78 e0 bb 96 6a 04 bb 26 26 28 bd
       -0.097300716 -0.0068502813 -0.0020205132 -0.041052006
0000c0 1b fb de b8 17 2c ae 3d fb 70 c6 3c d8 d7 36 bd
       -0.00010632557 0.08504503 0.024223795 -0.04463944
0000d0 6a 41 22 3c 60 30 88 3c 1f 27 86 bd 87 22 f8 bd
       0.009903291 0.01662463 -0.065504305 -0.121159606
0000e0 8e 51 20 3d cb d4 e2 bc 46 f4 a9 3d fd 5d f8 bb
       0.039140277 -0.027689358 0.082985446 -0.0075795637
0000f0 34 9c a6 3a 3a 3b 0b 3d de 0f 59 3d 2f 7a c4 bd
       0.0012711347 0.03399203 0.052993648 -0.09593617
000100 3b 6d f0 3c ce 7f df bc ae 41 d8 3c 86 a0 20 be
       0.02934896 -0.027282622 0.026398506 -0.15686235
000110 eb 72 b0 3d be 93 f3 3c a3 c5 6e 3d 32 0d 8a 3d
       0.08615669 0.029733535 0.05829395 0.06740798
000120 50 85 87 bd 73 30 25 bd a8 43 c4 bd 29 79 f3 bc
       -0.06617224 -0.040329408 -0.09583217 -0.02972086
000130 ee ff 82 bc 4d cf 1f bd e6 34 a6 bd 23 2a 99 3d
       -0.015991177 -0.039016057 -0.08115558 0.0747874
000140 40 ae 4f 3d 75 fb ff bd 77 2a 0d be 9e 60 aa bd
       0.050703287 -0.124991335 -0.1378573 -0.083192095
000150 3e 32 f2 bc 59 5d f7 bc 70 47 c9 3d cf e0 c6 bc
       -0.029564973 -0.030195879 0.09828079 -0.024277119
000160 d6 68 86 bd 18 8b 63 3d 8c 90 93 bd 42 3c 9f 3d
       -0.065629646 0.055552572 -0.072053045 0.07775165
000170 4f 73 81 bd e8 f9 ed bd 51 e5 3e bd 1c 6e e9 bd
       -0.063208215 -0.116199315 -0.046605412 -0.11397955
000180 f5 4e 66 3d 85 ae 20 3c 2c 65 b0 3d 50 d8 c2 3d
       0.056227643 0.009807234 0.08613047 0.095139146
000190 ce 7c b1 bc f2 03 9b bc 10 7d 15 bd 62 20 d6 bd
       -0.021665957 -0.01892278 -0.036496222 -0.10455395
0001a0 db f9 5b 3d 58 d7 ff bd 8f 74 55 3d c3 49 06 3c
       0.053705078 -0.124922454 0.052113112 0.008196297
0001b0 70 50 5d bd 80 f8 3e 3d a5 ee d5 bc 07 94 63 3d
       -0.05403179 0.046623707 -0.026114771 0.05556109
0001c0 5e 7d a3 bd f3 3f f3 bd 73 a9 aa bd bc c5 87 3d
       -0.07982896 -0.11877432 -0.08333101 0.06629512
0001d0 cd f7 47 3d 89 87 6b bd fc a2 73 bd 3d 8e e1 3c
       0.048820306 -0.057502303 -0.059481606 0.027533645
0001e0 e5 1f 10 be 36 ac 19 3d 7e 64 14 3c 80 a9 a1 3c
       -0.14074667 0.03751775 0.009057162 0.019734144
0001f0 3d a3 02 be bd e2 d5 bc f6 0b 16 bc e9 1e 85 3d
       -0.12757583 -0.026109094 -0.009158125 0.06500036

encoder.layers.0.linear2.weight f4 [64, 128]
000000 b2 4c c9 3d 4e 40 34 bd b1 24 35 3d 82 56 06 bb
       0.098290816 -0.04400664 0.044224445 -0.002049834
000010 80 89 56 bc 0e f7 05 bd 60 2d 6c bd a9 f9 a8 bc
       -0.013094306 -0.032706313 -0.05766046 -0.02062686
000020 04 e7 9c 3d b1 c8 42 bc e9 4c 80 bd 71 1c 01 bd
       0.0766125 -0.011888669 -0.062646694 -0.031521264
000030 1e d1 83 3d ab a8 37 bd 29 df 9a bc 28 72 0f 3d
       0.0643637 -0.04483859 -0.01890524 0.035020977
000040 17 f4 eb 3d 1c f9 c7 3d ba 2a 8b 3d 8c e9 3b 3d
       0.11521166 0.09764311 0.06795259 0.045877025
000050 6c 50 26 3d e9 66 87 bd ae af 69 3d 3a ea f2 3d
       0.04060404 -0.066114254 0.057052307 0.118610814
000060 09 27 87 bd 8d 5d 32 bd 75 46 a7 bd 34 e6 93 bd
       -0.06599242 -0.04354625 -0.081677355 -0.07221642
000070 67 c5 84 bd 22 51 ca 3d b7 bf 7f bd eb d6 a9 bd
       -0.06482964 0.09878756 -0.062438693 -0.082929455
000080 0d 01 9d 3d e2 4c 7d 3d 0a 5e dc bc 4b 35 8b bd
       0.07666216 0.0618409 -0.02690031 -0.06797274
000090 65 4c 5d 3c 5c 8f 56 bd 60 f2 80 3c 46 fd b8 3b
       0.013506983 -0.052382812 0.015740573 0.005645427
0000a0 ca 56 c1 bd ac 1b d3 3d 9c 92 88 3d 87 6e 7c bd
       -0.09440382 0.10308012 0.066685885 -0.061628845
0000b0 7a 29 04 3c 7c 3d e1 bd 86 82 88 bd 67 b8 80 3b
       0.008066529 -0.10998055 -0.0666552 0.0039282325
0000c0 10 06 c4 3d ac 9a da bc ef f4 e4 3c 58 da b2 bd
       0.09571469 -0.026685081 0.027948825 -0.08733052
0000d0 76 4e 69 bd b8 70 5c 3d eb 27 08 bd 6f 86 08 3d
       -0.05695959 0.053818434 -0.033241194 0.03333133
0000e0 56 e1 37 bd 24 cf 94 bd b0 e5 40 3d 79 e5 24 3d
       -0.04489263 -0.072660714 0.047094047 0.040257905
0000f0 a9 59 3f 3d af f6 86 bd 34 8f 2f 3d 12 7a 0a 3d
       0.046716366 -0.0659002 0.04286118 0.03380782
000100 36 9f 0e bd ad 33 f0 bc 02 b5 b3 bd f1 c1 83 bd
       -0.034819804 -0.029321516 -0.08774759 -0.06433476
000110 a1 dd 7b bd 35 ff c0 bd 11 d6 8b 3d 3c 75 e4 bc
       -0.06149066 -0.09423677 0.06827939 -0.027887933
000120 e2 be 5e bd 11 49 cf bd 2a ba bc bd 91 88 c6 bd
       -0.05438126 -0.10121358 -0.092151955 -0.09694017
000130 36 cb 88 3e 58 32 a8 3d f7 08 aa 3c 34 b8 21 bd
       0.26717538 0.08212727 0.020756228 -0.03948231
000140 96 a8 c2 3d da 1f b9 3d de e3 5b 3d b9 a4 14 3d
       0.095048115 0.09039278 0.053684108 0.036289904
000150 1f 84 4a bd ba 22 ba bd 85 f6 11 be 14 d4 75 bd
       -0.049442407 -0.09088655 -0.14254196 -0.060016707
000160 5c 31 06 3d 03 3a 2b be 85 6a c4 3b 9a 8a 0e 3e
       0.032761917 -0.16721348 0.0059941434 0.1392006
000170 0a 42 9a 3d eb b1 f3 bb 31 00 cc 3d 15 86 3e 3d
       0.07532127 -0.007436981 0.09960974 0.04651459
000180 c6 e0 2c 3d 18 74 5a 3d 82 a8 8e 3d 76 0c 7e bd
       0.04220655 0.053333372 0.06965734 -0.062023602
000190 3e 3d f8 3d db fe f0 bd f5 7b 89 bd 2b 71 71 3d
       0.12121056 -0.1176736 -0.06713096 0.058945816
0001a0 f0 2f 3d 3e 1a 9f 03 3d 2b ec 53 bd 6b f9 44 3c
       0.18475318 0.032134153 -0.0517389 0.0120223565
0001b0 8c 90 ae 3d 3a 73 7c 3d 71 24 5b 3d d8 ca d1 3b
       0.08523664 0.061633326 0.05350155 0.0064023547
0001c0 37 c5 a0 bd d8 67 a9 3d 2d bd 8f bc 63 22 ef 3d
       -0.07850116 0.0827176 -0.01754626 0.116764806
0001d0 6a 16 a8 bd b6 c3 23 3d 79 1e a3 3d 9c ae 85 bd
       -0.082074 0.039981566 0.079647966 -0.06527445
0001e0 47 b4 d2 3d 5d 39 b7 bd 5b 86 0f be e7 2f ee 3a
       0.102882914 -0.08946488 -0.14016096 0.0018172235
0001f0 ed 06 f0 bd 4f 75 9d 3c a0 f4 33 bd 40 9c 86 bd
       -0.11720071 0.019220976 -0.043934464 -0.06572771
000200 20 c6 ed bb d3 b4 c8 bd 04 8f a0 bd c8 9a 38 bd
       -0.0072562844 -0.098001145 -0.07839778 -0.045069486
000210 46 25 cf 3d 66 e6 4e bd 68 ef 6b 3d 05 2b d8 bc
       0.10114531 -0.050512694 0.057601362 -0.0263877
000220 55 f4 7f 3c d8 03 85 bc dd 91 98 bb ad cc ab bc
       0.015622218 -0.016237184 -0.00465606 -0.02097162
000230 61 e8 01 3d ed 93 94 bd f2 d2 78 3c 47 64 e3 3d
       0.031715754 -0.07254777 0.015187012 0.11103111
000240 67 d9 a7 3d 41 54 ee ba 86 da 0e 3d 62 44 a1 3e
       0.08195763 -0.0018183069 0.03487637 0.31497484
000250 07 9b 9e 3d ef b0 21 3c 02 97 62 bd 15 6f de 3d
       0.07744413 0.009868844 -0.055319794 0.10861031
000260 11 f0 13 bd 14 34 2f bc 65 60 e9 3a b5 ec a2 bd
       -0.036117617 -0.010693569 0.0017805217 -0.079553045
000270 3a b1 76 bd d5 2a 65 bd fc 36 01 bd 3f 68 7c bd
       -0.06022761 -0.05594905 -0.031546578 -0.061622854
000280 fb ff 94 3c 68 e0 60 3d 70 dd 60 bd bc 44 3e 3c
       0.018188467 0.05490151 -0.05489868 0.011613067
000290 ae 3f ee bd 4d bf a4 bd 95 c9 cf bd 5b 5b be bd
       -0.1163324 -0.080443 -0.101458706 -0.092947684
0002a0 b4 38 f4 bc c4 00 8e 3d 30 a0 c1 bc 7d 0d 17 bd
       -0.029812194 0.0693374 -0.023635954 -0.036878098
0002b0 ef d3 a3 bc f0 fd 92 bc 8a ab e5 3c 47 f3 06 bd
       -0.019998519 -0.017943352 0.028035898 -0.03294685
0002c0 e8 0b 9e bc b0 a0 09 bd 95 6f 06 3d f6 20 fc bc
       -0.019292787 -0.03360051 0.032821257 -0.030777436
0002d0 6e 74 9f bd 25 f1 b1 3b 90 6c a8 3d 0b 6e 3e 3d
       -0.07785879 0.005430358 0.08223832 0.046491664
0002e0 3e 1e 5b bd 52 2c 06 bd 67 dc 0d bd d0 9d 9a 3d
       -0.053495638 -0.03275711 -0.03463402 0.075496316
0002f0 12 97 d1 bd c0 b0 e7 bd 36 a1 26 3d 33 c0 8e 3d
       -0.102338925 -0.11313009 0.040681086 0.06970253
000300 85 ba 8e bc fc 36 31 bd 29 fe bf 3d ae 12 cb 3c
       -0.017422924 -0.043265328 0.09374649 0.02478918
000310 94 27 43 bd 41 47 9c bc 1a ca 8c bd 5f 43 c5 bc
       -0.047645167 -0.019076945 -0.06874485 -0.024079977
000320 8b be 87 3d 89 7f b9 bd 57 bf f3 bc 4f d0 e8 3c
       0.0662814 -0.090575285 -0.029754324 0.028419642
000330 6f 27 8f 3e ee c0 ad 3d 9d bc 87 3b 15 e6 70 3a
       0.27959773 0.08484064 0.0041423575 0.00091895583
000340 6d b3 93 bd de 9e b5 bc 7c 16 eb 3c 29 51 b5 3d
       -0.07211957 -0.02217048 0.028697245 0.08853371
000350 de 85 3d 3d d3 70 04 3b 48 78 06 3d b5 0d 75 ba
       0.046270244 0.002020885 0.032829553 -0.0009348051
000360 89 be 5f 3d 06 9a a5 3c 71 0c 46 3a 6b 68 ec 3d
       0.054625068 0.020215046 0.00075549545 0.11543354
000370 e6 68 e5 bc b2 cc 41 bd 19 6a dc bd b7 05 c3 ba
       -0.028004121 -0.047314353 -0.10762424 -0.0014879022
000380 06 35 d6 bc 19 ec e7 3d cc 4b 22 3d 05 14 c3 bd
       -0.02614833 0.11324329 0.039623067 -0.09525303
000390 e4 e9 23 3d fa 72 5e bd dd 4c ad 3d 76 05 89 3d
       0.040017977 -0.05430887 0.08461926 0.06690495
0003a0 30 cc 14 3e 08 a5 28 3d c7 83 c3 bc b8 90 06 bd
       0.14531016 0.04117301 -0.023866547 -0.03285286
0003b0 d6 f6 8d 3c 37 3d 80 bd a4 f4 3c 3c 7f a4 28 3c
       0.017329615 -0.06261676 0.011532936 0.010293125
0003c0 2e 51 94 3d c9 6d 1c 3d a6 78 8b 3b 22 b8 01 3e
       0.07242046 0.038190637 0.004256326 0.12667897
0003d0 27 78 6f bd 58 e9 69 bd 14 de 3c bc 84 ff 01 3c
       -0.058464196 -0.0571073 -0.011527557 0.007934455
0003e0 b5 9e bd bd e5 df d6 bc 8e c6 eb bd 86 2f aa 3d
       -0.092587866 -0.026229808 -0.11512481 0.083098456
0003f0 80 4a a4 bd 9f 05 f7 bc d0 79 76 bd 1e bd 2e 3d
       -0.08022022 -0.030154048 -0.060174763 0.042660825
